tf_lite_model.tflite (tflite, 65104 bytes, 6 tensors)

sequential/dense_1/BiasAdd/ReadVariableOp f4 [64]
00000000: 1ba7 31be 4919 103e 6d8d d53e 0296 39be
00000010: bddf e4bd 8f4d 12be 16c7 e43d 9fa9 963e
00000020: ada4 123e f0bf 0d3e f314 ae3d c2b6 9b3d
00000030: fb0e 413c f16b 203e 6994 c83d a9a8 293e
00000040: b727 483e 9757 553e ac31 b13d 5840 223e
00000050: d1fb a53d fe56 d7bd d630 3cbd 32cd b93e
00000060: 1d6d 64bd 71cf de3d a1d6 89bd c556 b03e
00000070: b19e 91bd d410 833e a19a 2d3e b43d 8abd
00000080: 950b 723e e200 0fbe 7774 a9bd 91e2 d73d
00000090: 616a 583e 49c2 88bd 0106 98bd eaa3 a13e
000000a0: dabc 223e d56b 843e 1a38 35bd bc2a 563e
000000b0: f776 833d 0c83 ca3d 848a 0e3e 1411 823d
000000c0: c1f7 183e db29 1c3c 2c42 7abd 62bf b33e
000000d0: 8372 0fbe 9791 e93d 3d80 633d 34de 153c
000000e0: 2a1b 093e 610d 9bbd f510 03bb 846d 97bd
000000f0: 9ab5 b93c bb9b 843e c963 dd3d f1a9 493c
-0.17348902 0.14072146 0.41709462 -0.1812363 -0.11175487 -0.14287399 0.11170785 0.29426286
0.14320631 0.1384275 0.085000895 0.07603218 0.011783357 0.15666176 0.09793932 0.16568245
0.195464 0.20834194 0.08652052 0.15844858 0.08104671 -0.10514639 -0.04594501 0.36289364
-0.05576812 0.1087941 -0.0673039 0.344412 -0.07110346 0.25598776 0.16953517 -0.0675005
0.2363723 -0.1396518 -0.08274167 0.10541261 0.2113433 -0.06677682 -0.0742302 0.3157037
0.15892354 0.2586352 -0.044242956 0.2091474 0.06419175 0.098882765 0.13920027 0.06350914
0.1493826 0.0095314635 -0.061098263 0.3510695 -0.14008527 0.11404722 0.05554222 0.009147216
0.13389269 -0.07570911 -0.001999912 -0.07393935 0.022669602 0.25900063 0.10810048 0.012308584

sequential/dense_2/BiasAdd/ReadVariableOp f4 [9]
00000000: b18f b0bd 3e8d c23e ac55 6abe 3564 87be
00000010: 2444 fabe e29e d6be e99e e23e e9a7 cc3e
00000020: c1c1 873e
-0.08621157 0.37998384 -0.22884244 -0.2644364 -0.48880112 -0.41918093 0.44261864 0.39971855
0.2651501

sequential/dense/BiasAdd/ReadVariableOp f4 [128]
00000000: d59d 9abc 4cbd 1cbc 17bb 2b3e 2e31 1abe
00000010: b001 e9bd cb46 843c 8d6c 103e 85fe 773d
00000020: 6fd5 7d3e 928d 4d3e b09b 8ebd f483 67bc
00000030: 3806 51bc 507b 20be 2974 9f3d 645f 3a3e
00000040: 755f c03d c4ab cabd 2595 003d 9b18 363e
00000050: 02f2 03bd a909 b43d 5fed 98bc bfb6 3d3e
00000060: 5bbf 093c 883c 8a3d b977 cdbd a713 6c3e
00000070: d91a 2ebe 8dfa c3bc 1e7b 8b3d f996 5b3d
00000080: fcc0 ad3d ed7e a1bd 40cf 4b3b 1d1d 91bd
00000090: 9457 d53d 8be4 2a3d 101f a6bd 315a c2bd
000000a0: 2119 683e 53a9 803e e280 99bd aacd 913d
000000b0: 065e 633e ff26 2c3d ec31 5f3d e135 183d
000000c0: 4c87 90bd 0b19 10be 3ae7 a03d c7d1 16bc
000000d0: 390f 323d f50a b8bd cd48 693e 635f 3bbd
000000e0: 3a0a 233e 724a 3dbd 0606 5e3c 0c6b 933d
000000f0: a239 9c39 1479 38be 5228 283e 582b 533d
00000100: e2c3 9f3d 0598 293e 74be 2abb 58b2 233e
00000110: d6a5 35bd a634 f1bd f849 7b3d 0702 413d
00000120: cc1f 1e3d 69e4 00bd 6241 e839 e305 b33d
00000130: 1d27 273d 67a2 5b3e 0c03 0c3e 456a 01bd
00000140: f785 733c a1d8 03be bbf5 c4bc 169c 0bbe
00000150: 536f cbbd b312 163e 6b04 f93d 8089 9ebd
00000160: 6423 c63d 4c3b e0bd 3e0d 94bd 7078 973e
00000170: 190b 35bd 06c4 ba3c 1f0b 3a3e 40d9 243d
00000180: 74f8 8f3c ebae aabd 113b 71bd 965a 4a3e
00000190: c28f f13c caaa b03d 2b71 6f3c 7cd7 d8bd
000001a0: 58ed ea3d b654 d73c a824 d23d 3463 e83d
000001b0: ecfb 83bd 475c 4abe cb12 a0bc 1f90 193e
000001c0: 6cab e83c 7e82 f63d cb24 50be 7a51 7d3d
000001d0: f907 f93c 40fc 8a3e e285 98bb 7043 813e
000001e0: 1d7c 7fbd 96b5 b43c 4b9d 433d a170 23be
000001f0: ba24 27be bb11 e53b cee2 ab3d 7071 653d
-0.018874088 -0.009566616 0.16770588 -0.15057823 -0.11377275 0.016147038 0.14103909 0.060545463
0.2478845 0.20073536 -0.06963289 -0.014130581 -0.01275783 -0.1567204 0.07785828 0.18200451
0.09393207 -0.09896043 0.031392235 0.17782824 -0.03221322 0.08790905 -0.018667875 0.18526743
0.008407439 0.06749827 -0.10032601 0.23054372 -0.17002429 -0.023923183 0.06810592 0.053610776
0.084840745 -0.07885537 0.0031098872 -0.07085631 0.10417095 0.04172186 -0.081113935 -0.09489859
0.22665836 0.25129184 -0.074952856 0.071193054 0.22203836 0.042029377 0.05449097 0.037160758
-0.07057056 -0.14072053 0.07856603 -0.009205288 0.04347155 -0.08986465 0.22781678 -0.045745265
0.1592187 -0.046213575 0.013551241 0.07198152 0.00029797578 -0.18014938 0.16421631 0.051555008
0.078010336 0.16561897 -0.002605346 0.15986001 -0.044347607 -0.1177762 0.06134984 0.047121074
0.038604543 -0.03146783 0.00044299202 0.08741357 0.040808786 0.2144867 0.13673037 -0.031595487
0.014863483 -0.12875606 -0.024042955 -0.13633761 -0.09933343 0.1465557 0.12159046 -0.0774107
0.09674719 -0.1094881 -0.07229088 0.29584074 -0.044200037 0.02279855 0.18168305 0.04024625
0.017574526 -0.08334144 -0.05889422 0.19761118 0.029487494 0.086263254 0.014614384 -0.105879754
0.11471051 0.02628551 0.10260898 0.113470465 -0.06444535 -0.19761764 -0.019540211 0.14996384
0.028402053 0.12036608 -0.20326535 0.06184528 0.03039931 0.27145576 -0.004654632 0.25246763
-0.062374223 0.022059243 0.04775743 -0.15960933 -0.16322604 0.006990639 0.08392869 0.056016386

sequential/dense/MatMul f4 [128, 53]
00000000: 4449 06bc 6733 2fbe da8e 1e3e 5db0 f93d
00000010: 6e4f 38be 9a87 4fbb 18d4 01be 088d c7bd
00000020: 5e7a 17be 0473 d33d 696e 3e3e 692c e6bc
00000030: caee 6b3e 5013 cabd add8 dfbd e52f 013e
00000040: 62d3 d73d 318a 90bc 315a a13d 0446 673d
00000050: b41c dbbd 525a 543e 6db5 3abe 2bbc 2dbe
00000060: bb0b ac3d 053b 8d3d 2b94 a4bd 4ab4 043d
00000070: 7d93 03be 02b2 83bd 26b6 7f3e f3df 203d
00000080: fa90 aa3d 0bc9 b9bd 2812 4dbe e53f a1bb
00000090: 5090 11bb c0ac cd3c 7d69 8fbb 7da8 0dbe
000000a0: a9c3 6cbe 3722 15be 6353 973e c457 5cbd
000000b0: 1778 7bbc 001d 54bb 023c d53d 581c 06be
000000c0: ab17 02be 04e7 4e3e cb56 6c3e da8e 093e
000000d0: 2c21 853e 7bae 7dbd 1154 ef3d 17fc ce3d
000000e0: a3d7 03be 4cdf c0be 7c98 1e3e b61e 4abd
000000f0: 828f 7f3e 59f4 64be 9f7d 2d3e a24e 773e
00000100: 6092 6e3d be83 d03d c457 6f3e 5414 013e
00000110: 09fa 2ebe 4f59 3fbe b9b0 0abe 588a 373d
00000120: b752 04be 9227 1d3c 59dd 50bd 7390 3ebe
00000130: 474c 81bd 19f0 64bd 59ad 533e 3ec7 eebd
00000140: d751 e83d 2885 b33d 9652 9c3d 48ef 8f3e
00000150: 40b6 60bd 70a6 24bc 991c b2bd 3830 a43c
00000160: e2b7 fd3d 039d 663e 79e4 27bc 186e e43e
00000170: 6ed5 abbd e3ac b1bd 49a3 c2bd d12e 443e
00000180: b9a1 8f3d 8ca9 173e 23fa d53d 912d 32be
00000190: c13d 2abd 58b5 23be 76b8 f2bd 79fc 623e
000001a0: 0da4 26be d301 813c 70f6 fe3c 2934 193e
000001b0: 9306 b6bc c776 c9bd aefa 27be 26ff fd3d
000001c0: 5d72 343e 5c42 b93e c37a e13d c774 153e
000001d0: a522 dabd e309 21bd f4be 243d a5a8 1dbe
000001e0: 14f0 c2bd 3746 8bba d65e e53d e697 e13d
000001f0: 2d4b 523d bf2b 97bd a14a 283e ac59 273e
00000200: 9c9b 08bd fd4a 10be 5029 5a3d c066 b23c
00000210: 3d14 123e ac1e 10be 7281 7a3e 0b50 b3be
00000220: c6a2 383d 9679 a33d d51f 0fbe 6008 a73d
00000230: 4747 563e 44b6 033e 5e46 13bd b8c1 15bd
00000240: b473 11be a24e 8f3e 60f5 2cbd 77bf 28be
00000250: c6de 77be 75f1 1cbe c833 7ebe c3a9 343d
00000260: b2d8 d33d 2774 2fbd 3721 d6bd ca18 5b3d
00000270: 321e 0f3e 1ac2 0abd 5595 3dbe d099 50bc
00000280: 628c a03d 4c6c 1ebe 3390 763d c0bf 78bc
00000290: c49c f33d d48f 39be b7e0 d83c 82d4 d83d
000002a0: 1806 31bc 4199 bebd 4427 29be 6d3c 09be
000002b0: 7d86 093e 7e95 e53d b841 6d3d 004d c43c
000002c0: d830 b43d c034 4b3b 2c42 133d d435 5dbd
000002d0: 03e1 db3d 8669 a3bd 4ef4 9d3d e014 c83c
000002e0: b865 8c3c c335 13be c4a3 f1bd f417 23bd
000002f0: 4776 0bbe 0c47 1d3d 0fee d9bd c811 26bb
00000300: ba52 2fbe 34ae cebd 1852 2e3d 08ab 813c
00000310: 697b 09be 82ae aebd 6090 d7bb bdb1 bf3d
00000320: 8877 ac3d 1613 20be c531 bcbd 0023 c23a
00000330: 1adc ad3d 51f7 e83d 50a2 223c 63aa 34be
00000340: cdfb 8d3c e828 37bd 8e09 39be bfd4 87bd
00000350: b9ee dcbd d873 8e3d 4702 a4bb ca95 bebd
00000360: 3631 4f3c dacb c93d 0e34 17be 0761 a13d
00000370: 86f8 0dbe 6504 123e 0954 18be 0d0b 203d
00000380: e7f7 233e 658f 163d 997d 53bc 40ee 3c3d
00000390: f215 a5bc 1eea 17be bad6 763e 6344 743d
000003a0: d314 c4bd 6c11 1abe 5b5f 44be 1453 07bd
000003b0: a2aa 013d 3a88 583c d462 e8bd 6278 ff3c
000003c0: b289 dfbd a830 513e 2af7 f63d f721 1f3d
000003d0: c758 973d b5b0 1bbd 8ba7 903d 4b3f 31bb
000003e0: 1692 723e d7e1 1f3e 3ce7 2c3c 68f8 df3c
000003f0: 7a10 2dbe 3492 afbd 38cb 7b3d 853d 173e
-0.008196179 -0.17109452 0.15484181 0.12191842 -0.1799905 -0.0031666518 -0.12678564 -0.097436965
-0.14792773 0.10324672 0.18596806 -0.028097348 0.2304031 -0.09866965 -0.109299995 0.12615927
0.10538365 -0.01764402 0.07878531 0.056463256 -0.10698834 0.2073758 -0.18233271 -0.16966312
0.08400675 0.06896023 -0.08036073 0.0323985 -0.12849231 -0.06430437 0.24971828 0.039276075
0.08328433 -0.09071549 -0.20026457 -0.004920947 -0.002221126 0.025106788 -0.004376589 -0.13833804
-0.23121513 -0.14563833 0.29555807 -0.053794637 -0.015348456 -0.0032365918 0.10411836 -0.1309675
-0.12704341 0.20205313 0.23079984 0.134334 0.2600187 -0.061933976 0.11685956 0.10106676
-0.12875228 -0.37670362 0.15487856 -0.049345694 0.24957088 -0.22358836 0.16942452 0.2415109
0.058245063 0.10181378 0.23373324 0.12605411 -0.17087568 -0.18686412 -0.13543977 0.04480967
-0.12922178 0.009591954 -0.050992344 -0.1860979 -0.06313377 -0.055893037 0.20671596 -0.11659096
0.11343735 0.08765632 0.076329395 0.28112245 -0.054861307 -0.010049447 -0.08696861 0.020042524
0.123885885 0.22520833 -0.010247343 0.44615245 -0.08390318 -0.08675554 -0.095038004 0.19158484
0.07013268 0.14810771 0.104481004 -0.17400195 -0.0415628 -0.15987146 -0.118515894 0.22166623
-0.16273518 0.01574794 0.03112337 0.14961304 -0.022219932 -0.09837108 -0.1640422 0.12402181
0.17621751 0.3618344 0.11009743 0.14595328 -0.10651139 -0.03931607 0.04022117 -0.15396364
-0.095184475 -0.0010625784 0.11199729 0.110153005 0.051341224 -0.07381391 0.16434719 0.16342801
-0.033351526 -0.14091106 0.053262055 0.02177751 0.14265533 -0.140742 0.24463442 -0.35022005
0.045077108 0.07982175 -0.13976987 0.08155894 0.20925628 0.12862498 -0.03595578 -0.036561698
-0.14204293 0.2798968 -0.042226195 -0.16479288 -0.24206075 -0.15326484 -0.2482444 0.04410721
0.10344066 -0.04283538 -0.10455554 0.053490438 0.13976362 -0.033876516 -0.18513997 -0.012731984
0.07839276 -0.15471 0.060196113 -0.0151824355 0.11895135 -0.18121272 0.02647434 0.10587408
-0.0108046755 -0.093065746 -0.16518885 -0.13401957 0.1343021 0.11210154 0.057924002 0.023962498
0.08798379 0.0031006783 0.03595178 -0.054006413 0.10736277 -0.079791114 0.07712613 0.024424016
0.017138347 -0.14375977 -0.11798814 -0.039817765 -0.13619338 0.038397834 -0.10641109 -0.0025340188
-0.17121401 -0.1009182 0.04255876 0.015828624 -0.13425983 -0.085293785 -0.00657849 0.09360073
0.08421236 -0.1563228 -0.0918918 0.0014811456 0.08489247 0.11375297 0.009926394 -0.17643122
0.017331982 -0.044716746 -0.18070051 -0.06632375 -0.1078772 0.06955689 -0.0050051543 -0.09305914
0.01264601 0.09853335 -0.14765951 0.078798346 -0.13864335 0.14259489 -0.14875807 0.03907304
0.16012536 0.036757845 -0.012908363 0.04612565 -0.020152066 -0.14835402 0.24105349 0.05963553
-0.095742844 -0.15045708 -0.19177 -0.033038214 0.03165687 0.013216073 -0.11346975 0.031185333
-0.10914935 0.20428717 0.120588616 0.03885075 0.0738998 -0.038010318 0.07063206 -0.0027045782
0.2368854 0.15613495 0.010553177 0.027340129 -0.16900817 -0.08572808 0.0614731 0.14769562

sequential/dense_1/MatMul f4 [64, 128]
00000000: 8b27 e73c 9bdf 46be 0145 493e f1fe 1e3e
00000010: dd17 e73c f6df 2cbe de5d 573d d6c5 e5bd
00000020: 01ed 15be f2cf 72bd 1e68 f4bc 4f26 03be
00000030: 76d7 083d ac3a a1bd 3cee 733d a8cb a9bc
00000040: 843f ff3c 6049 84bd 435e 033d 12ef b8bd
00000050: c41f 6fbe 7407 95bc 2c65 633e 06ee 93bd
00000060: bd4d a63d 2f22 86bd 37e6 363d 9d3c 0abe
00000070: 13b8 fabd ac8e 83bd 6446 8c3b 4603 dbbd
00000080: e371 62be 170a 073e 2060 bf3d 9121 113e
00000090: 21c0 963c f470 f93d 1bc1 6e3e 172d 0a3e
000000a0: 97cc da3d aaef 49bd 9f83 30be 7dd6 42bc
000000b0: f86a b5bc fa01 33be 121a b0bd 5729 843e
000000c0: af65 47bd 4145 5cbe 29f4 863e ff63 d43c
000000d0: 1f89 9f3d dfde b73d 4e84 1bbe 5efc 293e
000000e0: 2dac 8bbd d086 dc3c 3668 fdbd fb8a cbbd
000000f0: db7c df3d 0845 13be 69c4 c43d a871 17bd
00000100: 3234 9ebd e5bb 4bbe aa23 e33c 975f e7bc
00000110: 3579 29be 126d 4c3d bcbd 183a f542 55be
00000120: 0089 1b3e d0b7 cebd 62ca 4cbe e1a9 413d
00000130: fe41 2b3d 039c adbd 5c17 703e bdb1 0bbd
00000140: 4e94 9b3d 1cfb 61bd 3239 c73c dfdf afbd
00000150: 149e 4c3e babb 21be be1a 67bd 5492 2dbe
00000160: 4b62 97bd d252 4b3d d34e 56bd 1015 dcbd
00000170: a8ec 4abc 846f 3abe a60f f33c caf8 323d
00000180: 5ab0 753d 9e5e 423e 3f0d d23d 13d9 023e
00000190: 1313 babd 879c 0b3d 55d2 b83d 8e5e 333c
000001a0: a1b8 e0bd 9d41 01be c515 093e a93d fc3d
000001b0: b9d6 a93d bd6b 613d 9fc0 9e3d 20aa 683e
000001c0: e95a 3d3c c1f3 8fbd 12cd 85be 28f5 fd3d
000001d0: 3011 023d de46 c0bd 106b c2bd 1287 abbd
000001e0: 17e2 75be 153b 6b3d 6d04 0bbe b912 a6bd
000001f0: 89ed a33d ec79 19be d092 303e 2210 763e
00000200: cfb0 3d3e 931e 4abd 8f93 483e ae0b 14be
00000210: 9b07 e7bd 39f3 123e cfa4 393d f826 0ebe
00000220: 8b19 e5bd e826 023e 9e90 823e 20b3 e93d
00000230: 1f21 12be c208 943d f963 c23d 5f66 073e
00000240: 251d 453e 6ef9 a13d ebbf 983c b887 fcbb
00000250: 6c91 13be 819a 093e b79d d03c b3a3 1dbe
00000260: 181c 303e 5054 9a3d 0dd0 a5bd 031b 063e
00000270: c50c 03bb 59c9 b1bd caa7 dfbd 713f 723d
00000280: 5e7e ee3d db06 04be 7231 10bb bf1c 8a3d
00000290: 1ecb 863c c644 f2bd 73fe 023d 11a4 8b3c
000002a0: 82f3 dc3d f632 36be f13c 413e 97a7 2e3e
000002b0: 3260 10be 9fc5 f33d ad95 753d 9cec fa3d
000002c0: dcc6 21bd 903b a63d 6e0c 83bc 5eca 42bd
000002d0: 635a 26be 82d9 143e 6ec8 bebd 3d9b 533d
000002e0: fc34 8d3d 17fd 83bd 382f 493d 27df d63d
000002f0: d2fb 573e 718e 99bd 4893 0fbe cc55 2bbd
00000300: 2d53 d13d b099 893c a23a 9cbd fd35 163e
00000310: 94ce 5abd d621 903c b5cf bd3d 015e 03be
00000320: f9f4 813d b837 2d3d ef95 183d d140 b93d
00000330: f8ec 8dbc 7f2f 163d 0392 a6bd f57d 9bbd
00000340: 04e0 423e ba91 02be 1855 e3bd f102 5b3e
00000350: fb5b 26be f0b5 263c 94e3 e13d 74d4 433d
00000360: 371a 8e3d 2495 ac3d 9b23 643e 01ca 13be
00000370: 8ecd 89bd 3c2c 0e3e 5351 1bbe da9d 08be
00000380: 3ca7 ebbd 7741 32be 77f4 36be 0135 71bd
00000390: f03d 98bd 4c80 fc3c 2960 f6bd 49cb 1cbe
000003a0: d068 e7bd 2a2b 0dbe 35b9 db3c c4db 193e
000003b0: 51f1 20be b58a 0ebe f5fd 1d3e 0cf3 503d
000003c0: 83d0 1d3e 0a00 e8bd 7a11 23be 1b6a 913c
000003d0: 2e6d 6a3c ca4f d73b 3cd6 463e 5ef2 eabd
000003e0: 83ea de3c 2d84 3a3d 28bc 89bd b1f4 a9bd
000003f0: bd8e 2f3e b92c 16be 7bf2 403d c916 bdbd
0.028217098 -0.19421236 0.19655229 0.1552694 0.028209621 -0.1688231 0.052579753 -0.11219375
-0.14641191 -0.059280343 -0.029834803 -0.12807582 0.033408605 -0.07872519 0.05955337 -0.020726994
0.031158216 -0.06459308 0.032072317 -0.09029974 -0.23351961 -0.01819203 0.22206563 -0.07223134
0.08120296 -0.06549489 0.044653144 -0.13499685 -0.122421406 -0.06423697 0.004280852 -0.10693984
-0.22113757 0.13187443 0.09344506 0.14172961 0.018402161 0.12179747 0.23315851 0.13493763
0.10683554 -0.049300827 -0.1723771 -0.011891958 -0.022145733 -0.17481223 -0.085987225 0.2581279
-0.048680957 -0.21510793 0.26358154 0.025926588 0.07789826 0.08978056 -0.15187189 0.16600177
-0.06819949 0.026919752 -0.12373392 -0.09938618 0.10912486 -0.14381802 0.09607775 -0.036973625
-0.07724799 -0.19895895 0.027726967 -0.028243823 -0.16550143 0.049908705 0.00058266125 -0.20826323
0.1518898 -0.10093653 -0.19999078 0.04728115 0.041810982 -0.084770225 0.23446411 -0.03410505
0.07596646 -0.055171117 0.024319265 -0.08587622 0.19982177 -0.15794268 -0.056421988 -0.16950351
-0.07391795 0.04963953 -0.052321266 -0.10746205 -0.012385525 -0.18206602 0.029670548 0.043694295
0.059982635 0.18981406 0.10256433 0.1277812 -0.09085669 0.034084823 0.09024493 0.010947837
-0.10972715 -0.12622686 0.1338721 0.12316448 0.08292908 0.055034388 0.07751583 0.22721148
0.011557319 -0.07028914 -0.2613302 0.124002755 0.031754673 -0.09388517 -0.09493077 -0.08375372
-0.24012028 0.057429392 -0.13575907 -0.0810904 0.080042906 -0.14987916 0.17243505 0.24029592
0.18524478 -0.049345564 0.19587539 -0.1445758 -0.112807475 0.14350595 0.04532319 -0.13882053
-0.111865126 0.12710154 0.2550096 0.114111185 -0.14270447 0.07228233 0.094917245 0.13222645
0.19249399 0.07908903 0.018646201 -0.0077066086 -0.14410943 0.13437845 0.02546583 -0.15394478
0.17198217 0.075356126 -0.08096323 0.13096242 -0.0019996625 -0.08680982 -0.10920675 0.059142534
0.116451964 -0.1289324 -0.0022002128 0.06743764 0.016454276 -0.11829524 0.031980943 0.017046006
0.10788633 -0.17792878 0.18870904 0.17056118 -0.14099196 0.119029276 0.059957195 0.12252161
-0.039496288 0.081168294 -0.015997138 -0.047556274 -0.16245417 0.14536098 -0.09315573 0.05166172
0.068948716 -0.064447574 0.049117297 0.10491782 0.21092156 -0.07497872 -0.14021027 -0.04182987
0.10220943 0.016796917 -0.07628371 0.14669032 -0.053419665 0.01759426 0.092681326 -0.12828828
0.06345553 0.042289466 0.037252363 0.09045566 -0.01732491 0.03666639 -0.08133318 -0.07592384
0.19030768 -0.12750903 -0.11100215 0.21387841 -0.16246025 0.010175213 0.11029735 0.047810033
0.06938594 0.08426884 0.22279207 -0.14432527 -0.067286596 0.13884062 -0.15167741 -0.13341466
-0.11506507 -0.17407785 -0.17866693 -0.05888844 -0.07433689 0.030822895 -0.1203006 -0.15311922
-0.11299288 -0.13785997 0.026821712 0.1502524 -0.15717055 -0.139201 0.15428908 0.051013038
0.15411572 -0.113281325 -0.15924636 0.01775079 0.014308257 0.006570791 0.19417661 -0.11472009
0.027211433 0.04553621 -0.06725341 -0.08298624 0.17144294 -0.14665498 0.047106247 -0.092328615

sequential/dense_2/MatMul f4 [9, 64]
00000000: 2db6 29be 7464 17be 0b04 d83e 273f 6c3d
00000010: b177 d93e 6df3 b3bd 0638 843d dd28 f8bd
00000020: d530 10bf 4c6e 9e3c fdeb fd3e 7a0a 343f
00000030: 2906 d5bd f20d 3bbe 8da3 a33e 7ced a6be
00000040: ae8f 223f d356 a8be 170b 323e 0a12 9bbe
00000050: acdb e23c c98f 73be 95e7 ac3e da20 febe
00000060: 71e4 86be 1e5d e53e 373c 353f 6371 ca3e
00000070: acd1 9dbe 9980 ffbe e8c6 a33d 59b2 763d
00000080: 6270 da3e cfd7 a33e 70fe d13c 4bdd 30be
00000090: 7134 b2be 079f f1be b59b 2c3f 3da8 25be
000000a0: b6ff fd3e 85ad a73e 0c60 6c3e 3b6f 00bf
000000b0: ffa5 373f caa9 16bf 2f6b d13d 71a0 45be
000000c0: ea58 953d e6e6 d4bd e8ab ea3d 7e7a 8ebe
000000d0: b9b7 fabe 573d 56bd 1226 a53d 0711 bfbe
000000e0: b3a3 d73e 16f9 76be 3477 c83e 3a83 8ebe
000000f0: 6b6b 7cbe 2afd 513e 5088 c03c fc92 01bd
00000100: 58a4 e2bd 70c2 123e 35fd c2be 69d8 313f
00000110: ed23 dbbe cfa4 42be 1394 993e 662b c03e
00000120: d713 143d 836b 0fbf 72da 34be c860 87be
00000130: 1607 e8be 0fe3 a3be 6fa0 7fbe 9d0f ad3e
00000140: eb5d 46be a460 173e 8439 6cbd 70c1 023f
00000150: 7cbc 633e 5b29 1ebe ecd1 eebb c76b 113e
00000160: 970f 28bc 1f24 1abf dab7 b3be 4a69 80be
00000170: 6ca7 9fbd 3d61 263f 9c27 dfbd 2771 133e
00000180: b537 77bd 8bd7 6c3e 1233 c53e dc36 113f
00000190: f4a2 e7bd a33a 133f 8d12 2dbe 7ba0 e5be
000001a0: 899c ccbe e679 fdbe ee9e c6be 69ea d53e
000001b0: 99b6 c13e 42a1 293f 4b2d a43e 948c f53e
000001c0: 9fec 213f e39b e93d 1cf5 ce3d 680d fb3e
000001d0: ef55 013f 04ae 8dbe d959 953d d179 de3e
000001e0: 6c65 0c3d 305f ddbe 0ddc fdbd 3756 203f
000001f0: 5cc3 14bf a419 79be ef10 fa3e 0d71 03bd
00000200: d643 213c 4478 b1bd 0ba8 fbbe 246b cfbe
00000210: 55ae e4be bc75 cbbd 8fbf ab3d bf5f 1d3f
00000220: 65f1 d23e 9081 74bc f20e 0c3e ad52 c5bd
00000230: ece5 b7be 72b1 63be b824 54be 7db4 903e
00000240: 0557 aebe d425 803e 1c8b 0cbf bcad ce3e
00000250: 28a6 8cbe 8ccd 263f ad28 823e cc42 11bf
00000260: a9f1 cbbc 1be9 febe 68f1 fabe aa78 04bf
00000270: caf6 143f 2b10 343f dffb 463e cb57 ebbd
00000280: bae7 f8be 9f5a 64bc a905 243f bbe1 293f
00000290: cab2 83ba aad8 d0be 2bd4 e0be f19e 053f
000002a0: d383 a0be b1d3 1abc 705e eb3d 76dd c73d
000002b0: 237e 8bbe 0154 003f 8122 5d3e d466 b4be
000002c0: c497 babe 62c3 84be 743c bbbd fab9 e53e
000002d0: 6df8 4f3f 6387 0e3c 8067 58be 5578 a0be
000002e0: 46f9 523e 22e3 94be 8763 91be c79b 343f
000002f0: 5402 23be 3a19 04be f8b3 ed3e 2525 dfbc
00000300: b07f 97be bb2c f23e 8aec afbe beb3 95be
00000310: 1e02 ef3e 286d 543e 0d7c 09be db85 f2be
00000320: 3c01 99bd 65c1 b7be 4fed 3f3e 5ac6 28be
00000330: c4ba 173d 2e93 93be a7fd 233f c8e8 02be
00000340: 185d 05be 8f59 84be 820c 453d ac38 0ebd
00000350: 47fb bb3e 793d f4bd 26e0 b7be beac bcbe
00000360: 1d26 4b3e 351b 6c3e 9304 773d 1e5e 093f
00000370: 4dfd 25be 916b 0e3f 16c4 39be 3ac1 90be
00000380: 9b2d 7c3e 1eef bf3e 40cc 4fbe a6ed 85bd
00000390: d7df 50be 0ece 81be f7ba 893d f741 babe
000003a0: fbfc a43e 0cf5 28bf 30f6 f13e 6a5f 5fbe
000003b0: e03d 853d 3d11 0b3f c9a7 7cbe cf33 d23d
000003c0: 4a6b c8be 7020 a43e 05d8 473e b895 88be
000003d0: cd93 813e 8e01 553e 29c3 e8bd a423 71be
000003e0: 7f8f ccbd fe21 f03e 322d 2d3d 28d1 12be
000003f0: 0ad9 0e3f 2d06 973e 8445 73be ddaf 85bd
-0.16573401 -0.14784414 0.42190585 0.057677414 0.4247413 -0.08786664 0.06455998 -0.12117169
-0.5632451 0.019339703 0.49594107 0.70328486 -0.104015656 -0.18267038 0.31960717 -0.3260306
0.6350049 -0.32878742 0.17387043 -0.302872 0.027692638 -0.23785318 0.33770433 -0.4963444
-0.26346162 0.44797605 0.70795006 0.39539632 -0.3082403 -0.499028 0.07996923 0.06022868
0.42663866 0.32000586 0.02563402 -0.17271917 -0.34805635 -0.4719164 0.6742509 -0.16177459
0.49609154 0.32749572 0.23083514 -0.50169724 0.71737665 -0.5885283 0.10225522 -0.19299485
0.0729235 -0.10395603 0.1145857 -0.2782783 -0.48968294 -0.052304592 0.08063902 -0.37317678
0.4211708 -0.24118456 0.39153445 -0.27834493 -0.24650352 0.2050673 0.023502499 -0.031634316
-0.11066502 0.14331985 -0.38083807 0.6947084 -0.42800847 -0.19008182 0.29995784 0.3753311
0.036151733 -0.56023425 -0.17661455 -0.26441026 -0.45317906 -0.3200917 -0.24963544 0.33800974
-0.19371764 0.14782959 -0.05767204 0.5107641 0.2223987 -0.15445463 -0.007288208 0.1420127
-0.010257623 -0.60211366 -0.35101205 -0.2508033 -0.07795605 0.64992124 -0.10896227 0.14398633
-0.06035586 0.23129098 0.38515526 0.56724334 -0.11310378 0.5751135 -0.16901608 -0.44849
-0.39963177 -0.49507064 -0.3879313 0.41780403 0.37834623 0.66261685 0.32065806 0.47958815
0.6325168 0.11406686 0.10105345 0.49033666 0.5052175 -0.27671826 0.07292528 0.43452314
0.03427641 -0.43236685 -0.12395487 0.62631553 -0.58110595 -0.24326187 0.48841044 -0.032090236
0.0098428335 -0.08665517 -0.49151644 -0.4051143 -0.44664255 -0.099345654 0.08386146 0.6147422
0.41199794 -0.014923468 0.13677576 -0.0963491 -0.35917604 -0.22235659 -0.20717132 0.28262702
-0.34050766 0.2502886 -0.54899764 0.40366924 -0.27470517 0.6515739 0.25421658 -0.5674255
-0.024895506 -0.4978722 -0.49012303 -0.5174662 0.5818907 0.7033717 0.19432019 -0.114913546
-0.48614293 -0.013937621 0.64071137 0.6636006 -0.001004779 -0.40790302 -0.4391187 0.5219565
-0.31350574 -0.009449885 0.11492622 0.09759037 -0.27244672 0.5012818 0.21595193 -0.35234702
-0.36443913 -0.25930315 -0.0914239 0.4486845 0.8123844 0.008699271 -0.21133232 -0.31341806
0.20602903 -0.2907954 -0.28396246 0.705502 -0.15918857 -0.12900248 0.46426368 -0.027239392
-0.29589605 0.47299752 -0.34360152 -0.29238695 0.46681303 0.20744765 -0.13426228 -0.4736775
-0.074709386 -0.35889736 0.1874287 -0.16481915 0.037043348 -0.28823227 0.6405892 -0.12784111
-0.13023794 -0.25849578 0.04810763 -0.034722015 0.36715147 -0.119257875 -0.359132 -0.36850542
0.19838758 0.23057254 0.060307097 0.53659236 -0.16209908 0.55632883 -0.18141207 -0.2827242
0.24626772 0.3748712 -0.20292759 -0.065394685 -0.20397888 -0.2535252 0.06725114 -0.36378452
0.3222426 -0.6599891 0.4725814 -0.21813741 0.06505942 0.5432318 -0.2467338 0.10263788
-0.39144355 0.32055998 0.19515999 -0.26676726 0.25308076 0.20801374 -0.11365349 -0.23548752
-0.09988307 0.46900934 0.04227943 -0.143376 0.55799925 0.294969 -0.23756987 -0.06527684
