virtual_assistant_model.tflite (tflite, 67144 bytes, 6 tensors)

sequential/dense_1/BiasAdd/ReadVariableOp f4 [64]
000000 96 73 95 3d be 32 03 3e ef ce 58 3e 95 e3 3e 3e
       0.07297437 0.12812325 0.21172689 0.18641503
000010 0b e3 3a 3e d4 3f 08 3d 0b 11 b0 3d e4 c1 ac 3d
       0.18250673 0.033263996 0.08597001 0.08435419
000020 e0 9f eb 3d 25 ba bc 3d 9b 54 f7 3d 73 6b 3b 3d
       0.11505103 0.09215192 0.12076684 0.04575677
000030 eb 96 48 3e 96 3c 86 3e af 20 f1 3d 14 93 a8 3d
       0.1958882 0.26218098 0.11773812 0.08231178
000040 93 bc a6 3e f9 33 bd 3d 9c bd af 3d 2e 6c 01 3e
       0.32565746 0.092384286 0.08581087 0.12638924
000050 13 b4 6a 3e f1 36 38 3c b0 88 f4 3d 9a 67 d8 3c
       0.22920255 0.011243568 0.119401336 0.026416589
000060 c3 75 60 bc eb 3c b8 3c 30 f0 25 3e 27 d7 61 3e
       -0.013699952 0.022489985 0.16204906 0.2205473
000070 4e 3a 0a 3d 2c 34 e6 3d 04 8e 80 be 52 90 e7 3d
       0.03374701 0.1124042 -0.2510835 0.11306824
000080 79 91 5e 3e c6 4c af 3e 3b 91 74 3e 26 59 4f 3e
       0.21735181 0.3423826 0.23883526 0.20248851
000090 53 76 f3 3d 02 5b c6 3d b8 14 e2 bd 1d 7f 2b 3d
       0.11887803 0.09685327 -0.11039108 0.04186927
0000a0 a4 91 5c 3d 44 3f ad bc b3 21 62 3e db b9 71 3e
       0.05384983 -0.021148331 0.22083168 0.23606054
0000b0 ed 8d 8e 3c ce a7 d2 3d 9c 62 e8 3d 51 bf 4b 3e
       0.01740166 0.102859125 0.11346933 0.198972
0000c0 6b e4 8e bc 17 8b 15 3e e1 5b ae 3e ba 74 a8 3d
       -0.017442903 0.1460384 0.34054473 0.08225389
0000d0 16 5c 0b 3e e8 d7 b0 bd 30 56 b1 3d c9 ac f5 3d
       0.13609347 -0.08634931 0.08659017 0.11995847
0000e0 2f 25 e6 3d b4 d0 60 bd 5b 20 91 bc 88 d5 2e 3e
       0.11237561 -0.054886535 -0.017715624 0.17073643
0000f0 30 a9 0e 3e 82 ae 5d 3d cd 63 a8 3e 0d 77 45 3e
       0.13931727 0.0541215 0.32888642 0.19283696

sequential/dense_2/BiasAdd/ReadVariableOp f4 [7]
000000 8c b8 38 be 4e 21 e3 bd 26 41 66 be e0 fc c4 bd
       -0.18039149 -0.11090337 -0.2248579 -0.096185446
000010 20 a1 e5 3e a5 c4 7a 3e 6b fd a5 bd
       0.4484949 0.24489076 -0.08104976

sequential/dense/BiasAdd/ReadVariableOp f4 [128]
000000 6f 00 89 3d 8e 4a f1 3d d4 7d 31 bd 11 75 5a 3e
       0.06689536 0.11781798 -0.04333289 0.2133372
000010 2a a6 7d bc 08 92 2c 3d cd 44 e0 3d b3 ba dd 3d
       -0.015481511 0.042131454 0.10950623 0.10826626
000020 20 fb 4c 3c 68 70 f3 3d 53 5f 07 3e f2 7e 9a 3b
       0.012511045 0.11886674 0.13219957 0.00471484
000030 00 2e 0e 3e 3f c9 14 3d 0a d6 ee 3b ce 4d 5f be
       0.13884735 0.036324736 0.007288699 -0.21807024
000040 5f 99 f7 bd 62 ba fa bc 2d 15 66 bd 80 00 d2 bb
       -0.120898 -0.030606452 -0.05617254 -0.006408751
000050 76 bd e8 3d 48 e4 09 3e a2 02 39 3d d5 f4 d0 3d
       0.11364262 0.13465989 0.045168526 0.10202948
000060 0e 3c d7 3d cd 21 c6 3d de d3 9d 3d 86 ce 5e 3c
       0.105095014 0.09674416 0.07706426 0.013599044
000070 58 f6 84 bd 14 09 f2 3d 6b bc 5b 3c a1 c7 e1 3d
       -0.06492299 0.11818138 0.013411622 0.11024404
000080 c8 96 e5 3d b4 39 dc 3c 2e 6d 73 3c f8 53 86 bd
       0.112104 0.026882984 0.014857573 -0.065589845
000090 2f 1e 49 3c b7 11 49 3c d0 08 65 bb 3b 23 b8 3c
       0.012275263 0.01227229 -0.003494788 0.022477737
0000a0 52 0a 9b 3e e7 c3 1b 3b ba 93 8d 3c 19 cc 34 3e
       0.3028131 0.002376789 0.017282356 0.17655982
0000b0 79 62 2e 3e dc b6 81 3d 2e f8 f6 3d 18 35 00 bd
       0.17029752 0.06333706 0.12059055 -0.031300634
0000c0 48 b0 25 3e 63 55 2b 3e 2d 02 f9 bc 31 f2 f8 bc
       0.16180527 0.16731791 -0.030396545 -0.030388923
0000d0 c2 c1 87 bb 24 89 42 bd 9d df 1c 3e 14 3c 29 bb
       -0.004142971 -0.04749407 0.15319677 -0.0025823163
0000e0 b3 ea 91 ba 0f 27 f2 3d 6a 47 96 3d 06 15 94 bd
       -0.0011132568 0.11823856 0.0733784 -0.072305724
0000f0 9d 22 f8 3d 2e 17 91 3d 30 b4 58 3d 70 2e 88 3e
       0.12115977 0.07084499 0.052906215 0.2659793
000100 5b 04 bc bc 2e 45 86 bd e0 47 39 3e 90 b5 1e be
       -0.022951296 -0.06556164 0.18093824 -0.15498948
000110 1d 1a 2d 3e 46 72 83 3d 96 db bf bd 34 30 c9 3d
       0.16904493 0.0641828 -0.093680546 0.09823647
000120 1a b8 8e 3d ad 9d 8b 3d ef 19 c1 bd b6 ec 5b 3e
       0.06968708 0.06817184 -0.094287746 0.21477017
000130 a7 10 ba 3d 35 03 82 bd 9b 39 ad 3d bc 95 15 bc
       0.090852074 -0.06348268 0.08458253 -0.009129938
000140 b5 47 2c 3e 6d 36 0e 3e c8 37 19 3e ff e8 98 bc
       0.16824229 0.1388795 0.14962685 -0.018665789
000150 a7 ee b9 3d 4e b3 a1 bc 7d 99 83 bc c8 0b 86 3c
       0.090787224 -0.01973882 -0.0160644 0.01636304
000160 13 57 8e 3d ab 2e 4e 3e 71 01 18 be ec 6f 8a bd
       0.06950202 0.2013499 -0.148443 -0.06759629
000170 3e ed 16 3e 15 3e cb bb 72 8e 04 3e 7d 87 b8 3d
       0.14738938 -0.006202469 0.12944964 0.09010217
000180 a9 12 ca bd bd f5 cb 3d 6a d9 c4 bd eb 30 36 bd
       -0.098668404 0.0995898 -0.09611781 -0.044480246
000190 48 6a c6 3d b1 54 eb 3b 82 81 a3 bd 07 a1 1a 3e
       0.0968824 0.007181727 -0.07983686 0.1510049
0001a0 0e 16 19 3d ce 70 60 3e 57 68 9f bc 35 72 9a 3d
       0.03737455 0.21918032 -0.019458933 0.075413145
0001b0 cb b1 8b bc c7 d0 cf 3d 10 44 c7 bd 64 49 3f 3d
       -0.017052552 0.10147243 -0.09729779 0.04670085
0001c0 f5 ea 0f 3e e4 90 30 3c 6f af 87 3d 25 18 1f 3c
       0.14054473 0.010776732 0.06625258 0.009710346
0001d0 cc 26 1b 3d d8 34 b3 3d 2f b2 fd 3d fe 97 7b 3c
       0.037878796 0.087503135 0.123875014 0.015356062
0001e0 b1 e9 ec 3d 0b 55 16 3c 8e 41 61 bc 79 c2 24 3d
       0.115680106 0.009175549 -0.01374854 0.040224526
0001f0 52 8b aa 3d f6 44 a7 bd d0 56 91 3d a1 02 3e 3d
       0.083273545 -0.0816745 0.07096636 0.046389226

sequential/dense/MatMul f4 [128, 58]
000000 22 79 19 be 80 fb 31 bc 7f 73 56 3d ba 93 91 3d
       -0.14987615 -0.010863185 0.05235624 0.07108255
000010 0b e9 2a 3d d0 cb 2c 3e 88 3f 08 3e ea 35 8c bc
       0.041726153 0.16874623 0.13305485 -0.017115552
000020 48 6d fa bd e1 3a 48 bc 82 a8 01 be f0 80 89 3c
       -0.12227875 -0.012221069 -0.12661937 0.016785115
000030 ec a6 6f 3d 0d 39 e2 bd 22 26 25 3d 58 7f d9 bc
       0.0585088 -0.11046038 0.04031957 -0.02654998
000040 16 d7 2d be cd 43 95 3d 44 eb 33 3e 57 4e 51 3e
       -0.1697658 0.072883226 0.17570215 0.2044004
000050 df 68 05 3e 6b 64 52 bd 7f 4b 31 bc 9b b2 19 be
       0.13028286 -0.051365297 -0.010821222 -0.15009539
000060 b9 8c 5f bd 5d d0 b9 3e ee aa e4 3e 0c 83 45 3e
       -0.054577563 0.3629178 0.4466166 0.19288272
000070 4b 67 4f 3e aa 31 34 3d ee fd a0 bd ac 21 08 3e
       0.20254247 0.043992676 -0.07860933 0.13294095
000080 bc 9f 49 bd 36 fe 07 be 64 57 38 bd 37 e3 23 be
       -0.0492246 -0.13280568 -0.045005217 -0.16004644
000090 63 25 9d bd 36 80 8d 3e 98 e0 03 be 0a 84 68 be
       -0.076731466 0.2763688 -0.12878644 -0.22706619
0000a0 b1 a5 0a be 04 98 7c 3d 7b 9c a4 3d 43 e3 37 3e
       -0.13539769 0.06166841 0.08037659 0.17957787
0000b0 eb 3d c0 bd 24 a2 76 3d f7 f8 eb bd cf 79 a0 bd
       -0.0938681 0.060213223 -0.11522096 -0.07835733
0000c0 88 75 7f be ac f9 dc 3d d8 44 21 bc e2 89 0d 3e
       -0.24947178 0.10789809 -0.009843074 0.1382213
0000d0 e7 a2 45 be 61 55 98 bc 63 90 e4 3d 8e 4f ed bd
       -0.19300424 -0.0185954 0.11160352 -0.115874395
0000e0 83 4d 96 bd 3a 07 ce bd 60 47 ba bb 5f 0e 1b bd
       -0.07339003 -0.10059972 -0.005684778 -0.037855502
0000f0 af 19 fe bd 72 7b 81 bd 1a 4c 28 be 79 a2 0c 3e
       -0.124072425 -0.063223734 -0.1643528 0.13733853
000100 cf 2f b9 bd a8 be 06 be 32 e7 14 be e2 13 95 bd
       -0.09042322 -0.13158667 -0.14541319 -0.07279183
000110 b2 c4 64 3e 68 3d 0e be aa 5c f8 3d aa a5 9e 3e
       0.22340658 -0.13890612 0.12127049 0.30985767
000120 fa be 75 bd 81 b8 23 be c3 f6 c7 bd 68 d2 c9 bd
       -0.059996583 -0.15988351 -0.09763863 -0.09854585
000130 7a 2c 17 bd e1 40 c2 3d 79 4f e4 3b 06 64 23 be
       -0.03690765 0.09485031 0.0069674817 -0.15956125
000140 1b c1 1c 3d 8a 53 e0 3d cf a5 54 3e f0 bd 90 3e
       0.038270097 0.10953434 0.20766376 0.2826991
000150 c8 8d 68 3e 69 47 e5 bd f9 46 6e bb 7a 10 3d bd
       0.22710335 -0.11195261 -0.003635822 -0.04615829
000160 fc 6a 27 bd 28 14 52 3e 1e 39 b8 bd 7a 70 0b be
       -0.040873513 0.20515501 -0.08995269 -0.13617125
000170 df 4f bb 3d 3b 38 0c 3e c5 f3 20 3d 6f b2 91 bd
       0.091460936 0.13693325 0.039294977 -0.07114112
000180 bd 22 9d bd 54 c2 c1 bd d3 d4 15 be 95 fe 3e be
       -0.076726414 -0.09460893 -0.14631967 -0.18651803
000190 98 55 96 3d e5 94 48 3b de 3b 47 bd 6e 1b 30 be
       0.073405445 0.0030606326 -0.04864108 -0.17197964
0001a0 45 e4 78 be 74 af cf bc 0d cc 4e bd d1 bc a4 bd
       -0.24305828 -0.025352217 -0.050487567 -0.08043826
0001b0 5d da 45 3c 81 2b 2b 3e a6 30 57 3c 2f 61 1a 3e
       0.012075988 0.16715814 0.013134157 0.15076135
0001c0 65 77 71 3d 31 71 52 bd 65 ad 77 3e 21 92 a7 3d
       0.058951754 -0.05137748 0.24187239 0.08182169
0001d0 59 ab 8a 3d 6d 35 1c be 11 0f a1 bd f8 0b fb 3d
       0.06770963 -0.15254755 -0.07864202 0.12258142
0001e0 17 4b 59 3d 99 eb 0d 3e 91 c1 77 3e 17 4b 6b 3d
       0.053050127 0.13859405 0.24194933 0.057444658
0001f0 67 bc ed bd d3 ec 2d 3e cb c9 7c be 3e 93 84 3c
       -0.116082005 0.16984873 -0.24686353 0.016183492
000200 bc 8a be 3d 79 1f 06 be 7e 7d a8 3d 03 10 32 3e
       0.09303805 -0.13097943 0.08227061 0.1738892
000210 f3 ef 06 3e 7e 09 12 3a a9 d1 7e 3d 70 df b9 bd
       0.13177471 0.00055708725 0.062211666 -0.090758204
000220 5c b2 83 3d 78 06 00 3e 5e 12 8d bd 9c 7e 22 bd
       0.06430504 0.12502468 -0.06888269 -0.039671525
000230 02 13 86 bd 45 0d 58 bd 6d 3e 82 be c2 2e 83 bd
       -0.06546594 -0.05274703 -0.25438252 -0.06405403
000240 5a 63 ad bb 54 0c ac 3e 61 72 2e 3e fd 4b 4e 3d
       -0.0052913846 0.33603156 0.1703582 0.050365437
000250 b4 7c 9e bd f0 23 03 3d 9b 1b 80 3c 5d 59 86 3d
       -0.07738629 0.032016695 0.015638163 0.065600134
000260 f5 e6 0e 3e 84 6e 33 be 30 ef c5 bd 2b 78 03 3d
       0.1395529 -0.17522627 -0.09664762 0.032097023
000270 f9 d5 7f 3d 0a 03 72 3e 27 ff 5a bd 96 94 b0 3c
       0.06245992 0.23633972 -0.05346599 0.021555226
000280 ee 70 ec 3d a6 44 36 be 87 f8 3d bd 90 cb 5a 3d
       0.11544977 -0.17799625 -0.046379592 0.05341679
000290 82 85 91 3b 9b a8 e3 3d 91 b9 9f 3b f1 5c 63 bd
       0.004440964 0.11116143 0.004874416 -0.055508558
0002a0 4d 95 dd 3c 21 57 17 3e 6c 1b 81 3d d2 27 aa 3e
       0.027048731 0.14779331 0.063040584 0.33233505
0002b0 2b b7 5a bb e4 2d f6 3d 7f 3d 00 3e 17 4e 16 bd
       -0.0033373337 0.12020472 0.12523459 -0.036695566
0002c0 d6 4f ee 3b 65 04 2a be 70 19 70 3c e4 d3 2b be
       0.007272701 -0.16603239 0.014654502 -0.16780049
0002d0 4d 35 a6 3d 30 5c b6 3d d1 00 1b be 29 6c 29 3c
       0.08115635 0.08904302 -0.1513703 0.010340729
0002e0 cf 18 e9 3d 48 82 a8 3d fd b4 0c be 88 60 1d 3e
       0.11381685 0.08227974 -0.13740917 0.15368855
0002f0 58 0d be bd 45 3e 0e be 98 96 c0 3d bb 43 9c bd
       -0.09279889 -0.13890941 0.094037235 -0.07630106
000300 a4 f3 11 be 51 e2 ba bd de 51 e5 3d 14 bf d0 bb
       -0.14253098 -0.09125198 0.111972556 -0.0063704345
000310 ef 3c ee bd 89 c7 1c be 04 84 07 3e 05 c6 40 3e
       -0.11632716 -0.15310492 0.13233954 0.18825538
000320 90 e8 53 3d b7 33 b7 bc ed 2b 99 bd d4 67 24 bb
       0.05173546 -0.022363527 -0.07479081 -0.00250863
000330 15 b7 1a be 43 f0 2f be 16 d8 4c 3e e8 01 d3 3d
       -0.15108903 -0.17181496 0.20004305 0.10303098
000340 c2 a0 df bd d9 d3 0c be b2 18 b8 bd 7b fb 1d 3e
       -0.10919334 -0.13752688 -0.08989085 0.15427963
000350 78 d1 cd bd 87 01 1d 3e c1 d3 2e 3e 76 f2 1b bc
       -0.100497186 0.15332614 0.17072965 -0.009518256
000360 cb 5a 0d 3d 89 37 1e bd b6 2d 12 be da 30 c3 bd
       0.034510415 -0.03862718 -0.1427525 -0.09530802
000370 a7 48 7e 3d dc 9e 25 3e ec 17 fd bd 11 7a 15 be
       0.062081005 0.16173881 -0.12358078 -0.14597346
000380 20 62 24 3e 92 aa de bd c0 c7 12 bd 47 af b4 bd
       0.16053057 -0.108723775 -0.035835028 -0.08822494
000390 0c 0e 0d be 4b dc 33 bd 9f b7 c4 bd 28 1b 96 bd
       -0.1377489 -0.04391126 -0.096053354 -0.073293984
0003a0 34 7b 2e 3d bf d4 bf bd 38 76 4d 3d 47 a8 2f 3e
       0.042597964 -0.0936675 0.05016157 0.17154036
0003b0 03 6e 1a be 1a 45 23 be c7 60 17 3a 26 95 30 bc
       -0.15081029 -0.15944329 0.0005774614 -0.010777747
0003c0 73 5e 8b bd 02 c2 91 3e 48 22 bb bd 42 80 0b 3c
       -0.06805124 0.2846833 -0.09137398 0.008514466
0003d0 ec 30 0c be e8 60 07 be 0c ae c1 bd 8c 58 bf 3d
       -0.13690537 -0.1322056 -0.09457025 0.09343061
0003e0 b8 2a b5 3e 53 c0 14 3e e8 b5 a5 bc f8 4f 2e bd
       0.35384154 0.14526491 -0.020228341 -0.042556733
0003f0 fb 9b 21 3d 18 a6 62 bc 2f 4d 82 3e 58 bd 2e bc
       0.039455395 -0.013833545 0.2544951 -0.01066526

sequential/dense_1/MatMul f4 [64, 128]
000000 5b ae 87 3d f9 8f 59 bd 39 eb 32 3e 9c ee 42 be
       0.066250525 -0.05311582 0.17472543 -0.19036335
000010 f3 23 2d 3d 75 8f 3e 3e a3 67 17 3e 3b 13 e0 bb
       0.042270612 0.18609412 0.14785628 -0.00683823
000020 da 94 01 3d e4 4e c1 3c 87 f2 85 bd 46 ae 40 3e
       0.031636097 0.023597188 -0.06540399 0.1881648
000030 8d 94 ab bd d9 cc 1c be 8a 51 0a be 45 da 2e be
       -0.08377943 -0.15312518 -0.13507667 -0.1707545
000040 91 ed f8 bd e5 47 17 3d a7 b3 0f bd b3 20 1c bd
       -0.12154687 0.0369338 -0.03508344 -0.038117122
000050 ec cf 2a be c6 5d cf bd ba 46 3b bc 5d d6 33 be
       -0.16680878 -0.10125308 -0.011430437 -0.17562242
000060 3a ee 14 3c 01 73 49 3d bd dd 03 3e bd b6 18 3e
       0.009090001 0.049181942 0.12877555 0.14913459
000070 ce 4e f0 3d 5c db 8c bd f1 2d 99 3d 44 32 3a be
       0.11733781 -0.06877777 0.07479466 -0.18183237
000080 54 5c b5 3d fd 12 16 3e e1 cb 28 3d 05 bb bd bd
       0.08855501 0.14655681 0.04121006 -0.09264187
000090 dd 7a 8c bc 05 40 70 3e 28 dc c9 bd c4 d6 13 bd
       -0.01714843 0.23461922 -0.098564446 -0.03609349
0000a0 0f d9 c4 bd 07 94 83 bc f1 4c 07 bd 93 7b a5 3e
       -0.09611713 -0.016061796 -0.03303236 0.32320842
0000b0 5d 88 a4 bd 46 4c db bd 8d a6 0b be 01 34 c0 bd
       -0.08033822 -0.107079074 -0.13637753 -0.09384919
0000c0 58 4b 15 bd 81 84 a6 bd 52 c7 ce 3d a0 ca 50 3e
       -0.036448807 -0.08130742 0.10096611 0.20389795
0000d0 6f 8b 49 3e d3 8c 64 3e 1a d2 5b be 79 60 ae 3d
       0.19682096 0.22319345 -0.21466866 0.085144944
0000e0 0b fd 1a 3e eb 30 e3 3d 1d e4 91 bd db 33 25 3e
       0.1513559 0.11093315 -0.07123587 0.16133063
0000f0 be d3 77 3d 32 93 a3 3d 11 71 cb bd b0 80 67 bd
       0.060504667 0.0798706 -0.09933675 -0.05651921
000100 1b d5 46 3d 12 de 18 3e 36 3e 0e bd cb 57 0b 3e
       0.048543077 0.14928463 -0.034727298 0.13607709
000110 47 b0 f7 3d 31 25 19 3d aa 40 56 3d d7 c4 27 be
       0.12094169 0.037388984 0.052307762 -0.16383682
000120 ee f4 30 be 3d de 90 3d 40 27 c4 bc e3 4e 02 3d
       -0.17280933 0.070736386 -0.023944497 0.031813513
000130 57 b3 96 bd 0d 54 60 3e a8 9f f5 3d 75 f7 da bd
       -0.07358425 0.21907063 0.11993343 -0.1069173
000140 91 ab 02 3d b4 35 c6 bd 95 c4 12 be 0c ca b9 3d
       0.0319019 -0.09678212 -0.14332803 0.090717405
000150 ea ed 79 3e e9 8c 87 3e 90 3a 49 bd 79 88 d3 3b
       0.24407163 0.26474693 -0.049128115 0.006455478
000160 d3 24 42 bd 13 d0 49 be c7 b5 2f 3e bb ba a9 3d
       -0.0473984 -0.1970828 0.17159186 0.08287569
000170 5b 00 54 bd 7d aa 01 be b4 13 17 bd 57 35 4c 3e
       -0.05175815 -0.12662692 -0.036884025 0.19942223
000180 c9 e0 47 3e d5 ac 21 be d8 18 51 3d 9b f0 a6 bc
       0.19519342 -0.15788586 0.051049083 -0.020378402
000190 8e f6 8c bd 0e 18 dd 3d 6b 99 9a 3c f7 e1 0b be
       -0.06882964 0.10795604 0.018871984 -0.13660417
0001a0 65 8a 15 be 95 a9 2b 3d 15 56 c1 3c aa 3d 16 be
       -0.14603575 0.041909773 0.023600617 -0.1467196
0001b0 2a 8a 2a be 8c 82 c0 bd 59 22 5c 3e 52 5d 36 3e
       -0.16654268 -0.093999 0.21497478 0.17809036
0001c0 39 76 42 be 2f bc 00 be 7c 14 b5 3d e2 ab 3f 3e
       -0.18990411 -0.12571786 0.08841798 0.18717912
0001d0 0b 22 f4 bc c6 17 50 3d 9e f8 a2 3d b8 3c 60 3d
       -0.02980139 0.050803922 0.07957576 0.054745406
0001e0 ed 85 70 3e 09 f0 40 be cc ba 2d 3c c8 d9 04 be
       0.23488589 -0.18841566 0.010603618 -0.12973702
0001f0 2e 73 a7 bb 32 25 d4 3a 17 ce 62 bc 85 24 3c 3d
       -0.005110166 0.0016185401 -0.013843081 0.045933265
000200 7d 96 94 3e 8a 54 a9 3e 89 01 dd bd de 0f ba bc
       0.29021063 0.3307231 -0.107913084 -0.022712644
000210 f9 19 90 bd e8 8c 1e be 99 e1 a9 3e 6d b4 81 bd
       -0.07036204 -0.15483439 0.3317993 -0.063332416
000220 e5 5c 0f be 3b fe 42 be 5a 6e 80 3e bf be 09 be
       -0.1400028 -0.19042294 0.25084192 -0.1345167
000230 b8 e0 b4 3d 51 86 f1 bd 92 33 21 bd 52 50 63 3b
       0.08831924 -0.11793197 -0.039355822 0.0034685326
000240 01 fa 8b 3d cb ea 0c bd f0 30 15 3e 43 d2 c0 bd
       0.06834794 -0.034403604 0.1456945 -0.09415104
000250 3c 9d a9 3d af a1 0f bc 0f bc 57 3b a4 fb 1b 3c
       0.08281943 -0.008766576 0.0032918488 0.009520445
000260 52 8b 14 3c b9 a0 09 bd 9b 57 da bd f2 c4 92 bb
       0.00906642 -0.033600543 -0.10661241 -0.004479044
000270 ea c5 de 3d a4 0f 36 3e 88 6b fd bd 9d f8 b5 bd
       0.10877593 0.17779404 -0.123740256 -0.0888531
000280 ff 6b 2a be d4 e8 da 3d ab 5f ec bd 2d 17 3c be
       -0.1664276 0.1068894 -0.11541685 -0.18368216
000290 05 3d 15 be 90 20 38 be 06 a3 47 be 79 ff 3d 3e
       -0.14574058 -0.17981172 -0.19495782 0.18554486
0002a0 74 69 ab bc 60 62 e7 3d 51 c2 ca bd 05 d5 20 3b
       -0.020924307 0.112980604 -0.09900344 0.0024541032
0002b0 6f 9f 37 3e 36 51 00 be 6a 1a 86 be 38 12 35 bd
       0.17931913 -0.1253098 -0.26192027 -0.044206828
0002c0 ee fe 93 3e 5a 87 32 3e f9 d6 12 3e 51 17 86 bd
       0.28905433 0.17434445 0.14339818 -0.06547416
0002d0 1a 2a 38 3e e6 08 23 bc e8 88 23 3e 08 75 ee bd
       0.1798481 -0.009950852 0.15970194 -0.11643416
0002e0 a0 e0 9d 3d a9 1e c2 3c 52 2a 2c bd 76 09 bf 3d
       0.077088594 0.02369626 -0.042032547 0.093279764
0002f0 67 20 40 3e c7 9e 54 3e 50 c5 11 be c8 a0 11 3e
       0.1876236 0.20763694 -0.14235425 0.1422149
000300 17 6d 94 3d 62 04 8d 3e 4d 92 86 3e b9 71 d4 3c
       0.0724737 0.27542406 0.26283494 0.025933133
000310 12 7b d0 3e 1b ef cd 3d 8b 7a 52 bd 5f a2 8e be
       0.40718895 0.100553714 -0.051386397 -0.27858254
000320 1e d1 0e 3d f4 8b 31 3d 80 d1 0e bd 5f c6 17 3e
       0.0348674 0.04334636 -0.034867764 0.14821766
000330 70 f3 73 3e c2 eb 26 bd 19 63 78 bd 55 b3 81 be
       0.23823333 -0.04075218 -0.060641382 -0.25332132
000340 46 af 8c bd e1 29 91 3a 18 1f 21 3e 77 24 c1 bc
       -0.06869368 0.0011075103 0.15734518 -0.023576958
000350 50 56 0a be 65 5d b9 3d fc 23 d3 3d 06 68 fe bc
       -0.13509488 0.09051017 0.10309598 -0.031055462
000360 f7 8b 08 be ac 6a 9d 3c 6a 5e 5d be c7 5a bc 3d
       -0.13334642 0.019215904 -0.21618047 0.09197002
000370 69 9e 15 3e 9e ba 5f be a8 99 ac 3d 3a 22 34 3e
       0.1461121 -0.21848533 0.08427745 0.17591181
000380 d9 51 00 be b4 9c 7d 3e d8 72 5b bd c6 e0 17 bd
       -0.12531222 0.24766809 -0.05357632 -0.037079595
000390 a7 98 c0 3e 08 15 a1 3e 5c 02 8a bb 86 d0 12 3d
       0.37616464 0.31461358 -0.004211707 0.035843395
0003a0 a3 ef 7e 3e d1 d0 1f be bc 35 2f 3d af 50 fb bd
       0.24896102 -0.15607001 0.042775854 -0.122712485
0003b0 b9 cc dd 3d b7 74 46 be 25 c7 97 3c cd 35 77 3d
       0.108300634 -0.1938046 0.018527577 0.060354043
0003c0 a6 53 29 3e 8c 1f 83 bd 07 34 0b bd 25 12 1c 3d
       0.16535816 -0.064025015 -0.033985164 0.03810324
0003d0 73 83 07 be 63 79 4b 3d 4f c9 bd 3e 72 f1 4d be
       -0.13233738 0.04967631 0.3706765 -0.20111635
0003e0 b8 b9 ad 3e ed 09 42 be 8b 98 78 be 83 dc d9 bd
       0.33930755 -0.18949099 -0.2427694 -0.106377624
0003f0 9a b9 de bd 20 8c 05 3e 3e 8f ee 3d f1 48 27 bd
       -0.108752444 0.13041735 0.11648415 -0.040841047

sequential/dense_2/MatMul f4 [7, 64]
000000 5c 57 02 3f 0e 6c 4a 3f fb 47 06 bf 09 ed 5c bd
       0.5091455 0.7907113 -0.52453583 -0.05393699
000010 45 d3 17 3f c7 44 81 3e 46 0b 0c 3f 3e 0a fd be
       0.59306747 0.25247785 0.547047 -0.49421877
000020 05 af f0 3e a8 68 5a be 2c d4 9f bd 66 a3 29 bc
       0.4700853 -0.21328986 -0.078041404 -0.010353899
000030 65 fd 99 bd 4d 51 ca be 89 91 a6 be 21 bb da 3e
       -0.07519034 -0.39515153 -0.3253291 0.42720893
000040 cd 00 af be 9b a4 dd 3e 5c de ea be 12 a1 65 be
       -0.34180298 0.43289647 -0.45872772 -0.22424725
000050 ac 32 12 3f b2 e5 a6 be be 6c 48 3e b0 de be 3e
       0.5710857 -0.3259712 0.19572732 0.37279272
000060 37 a2 95 3e a2 22 2c be 25 ce 0e 3f 89 52 ca be
       0.29225323 -0.16810086 0.557833 -0.39516094
000070 f8 00 0b bd f9 c7 be be 74 b1 1d 3e 34 fa 9c 3c
       -0.03393647 -0.37261942 0.15399724 0.019162275
000080 4f a0 5f be 75 ea 7b 3e 7e a6 92 3e f9 3c 83 3e
       -0.21838497 0.24601157 0.28642648 0.25632456
000090 51 b7 aa 3e 51 14 90 3e 0f 44 1d be 66 20 a7 bd
       0.33342984 0.281405 -0.15357994 -0.081604764
0000a0 9f 18 25 3f 86 43 98 be f0 14 08 3e ac ab e6 3e
       0.64490694 -0.29739016 0.13289237 0.4505285
0000b0 ba 25 aa be d4 e8 40 be a2 3f 58 be a1 b2 d1 be
       -0.33231908 -0.18838817 -0.21118024 -0.40956596
0000c0 71 27 ab 3e 77 30 b3 be fa 3e 8c be 1c 6e f7 3e
       0.3342853 -0.34997913 -0.27391797 0.48326194
0000d0 10 fd 15 3b fd 72 c2 be c7 8b 5a 3e 25 67 d1 3e
       0.0022886433 -0.37978354 0.21342383 0.40899006
0000e0 ca 1c 9c 3e 3f ed 92 be 11 30 a9 bd 87 98 b9 bc
       0.30490714 -0.2869663 -0.08261121 -0.022655739
0000f0 d7 7d ff bd e3 c9 8c 3e a7 d0 bb be 2f 2d 0d 3f
       -0.12475174 0.27497777 -0.36682627 0.5514707
000100 51 d9 f3 bd 24 bf a0 be e9 25 ab be 7e ad 29 3f
       -0.11906684 -0.3139583 -0.3342736 0.66280353
000110 ae 2a 47 be 85 75 bc 3e 38 19 64 3d df 5c 90 3c
       -0.19449875 0.3680841 0.055688113 0.01762241
000120 b5 a2 c0 be 50 5d e3 be f5 39 0c 3f bf d3 e7 bd
       -0.37624136 -0.4440713 0.54775935 -0.11319684
000130 ff 3e 72 3d 84 8a 9c 3e 9f f1 08 3c ff 27 2a be
       0.05914211 0.3057443 0.008358388 -0.1661682
000140 10 55 13 3e de 44 e3 be 6b a9 c9 be 4f 6f 08 be
       0.14387918 -0.4438848 -0.39387068 -0.13323711
000150 dc 8c 24 be ae 34 8d bd 0a 45 14 3c b3 48 41 3f
       -0.16069359 -0.068948135 0.009049663 0.75501555
000160 0b 99 4a 3f 5f 08 53 3f 2b 15 cc ba 4b 8e a9 3e
       0.79139775 0.8243465 -0.0015570273 0.33116373
000170 6e 13 ea bc c4 4c 0a 3f c5 e8 58 be 27 cd 07 be
       -0.028573718 0.54023385 -0.21182545 -0.13261853
000180 d1 f0 8f be 71 36 de be 59 90 4d be aa 59 a6 be
       -0.28113416 -0.4340091 -0.20074596 -0.32490283
000190 67 d8 bb be 78 8d cf be ff 4b 36 be 1f af 5a bd
       -0.3668854 -0.4053762 -0.17802428 -0.053389665
0001a0 5e d9 46 bc 3a 62 92 be 63 87 28 3e b8 84 c7 be
       -0.012136785 -0.28590566 0.16457896 -0.38968444
0001b0 dc 1d 89 3e 5f d3 b5 3e 2c 64 b6 be 7a 11 0f 3f
       0.26780593 0.35512826 -0.356233 0.5588604
0001c0 52 f7 1d 3e ac 8e 82 3d 40 ce 76 be 12 f2 82 be
       0.15426376 0.06374869 -0.24102116 -0.2557531
0001d0 f6 0b 07 3f e0 5b dc be d1 2b fa 3d 8e 6f 34 bf
       0.52752626 -0.43038845 0.122153886 -0.7048272
0001e0 2e a7 ba be 0f b2 96 3e 84 27 eb 3e da 5f c2 bd
       -0.36455673 0.29432723 0.45928586 -0.094909385
0001f0 1a b4 18 3f 60 42 ef 3d ce 88 58 be 00 dd 9e 3d
       0.59649813 0.11682582 -0.21145937 0.07756996
000200 f5 0a ea 3d 34 ff 9a be a1 51 b4 be 40 7f 0d be
       0.11427871 -0.3027283 -0.35218528 -0.13818073
000210 ed 98 ed be 1f 89 d6 bd ea 64 6d be c7 bb 87 be
       -0.46405736 -0.104753725 -0.23183027 -0.2651045
000220 0f 8d 8d 3e c7 24 a6 3e 8d 13 1e 3f 7a 10 83 be
       0.27646682 0.32449934 0.6174858 -0.25598508
000230 ad 32 bd 3e 37 8f 2d be c6 f9 c1 be 88 c4 87 be
       0.36952725 -0.16949163 -0.37885875 -0.2651713
000240 10 47 62 be ee ae a9 3e c5 b8 52 bd 2b 45 c5 be
       -0.2209742 0.33141273 -0.05144574 -0.38529333
000250 12 a4 57 be 84 75 98 3e 00 02 41 3f e8 9f 5b be
       -0.21058682 0.29777157 0.75393677 -0.21447718
000260 c1 48 42 be b6 77 a2 3d 91 18 8e be 5b 2c 5d be
       -0.18973066 0.07932989 -0.27753118 -0.21598952
000270 ea 95 00 be 2e e5 5c be 0d 93 03 3e 65 a0 75 be
       -0.12557188 -0.215718 0.12849064 -0.23986967
000280 19 9c fc 3e 99 bb 0c 3f b2 cf 9a be 19 be c3 3e
       0.49337843 0.5497375 -0.30236584 0.3823097
000290 16 f8 6e 3e be 06 8c 3e a8 0e 2c 3e 0d 79 ca 3e
       0.23336825 0.27348894 0.16802466 0.3954548
0002a0 bd e9 7f be a8 2e 05 3e d8 40 77 bd e8 54 28 be
       -0.24991508 0.13006079 -0.060364574 -0.16438639
0002b0 73 2e 0e 3f 53 5c 20 bd c0 dd 52 be a8 32 a9 be
       0.55539626 -0.039150547 -0.20592403 -0.3304646
0002c0 97 bf ee bd 61 96 37 3e e8 25 85 bd e5 7c b3 3e
       -0.116576366 0.17928459 -0.06501371 0.35056224
0002d0 5b 66 5c 3e 4d 76 b4 be 55 2a 1b 3c fc e3 0a 3f
       0.2152342 -0.35246506 0.009470542 0.54254127
0002e0 f1 32 6e be d8 ed f6 bc 74 70 fa bc 9b fa 94 3e
       -0.2326162 -0.03014271 -0.0305712 0.29097447
0002f0 ab ea 46 be c1 87 6e be f4 ec c4 be 0f 94 2b be
       -0.19425456 -0.23293974 -0.3846203 -0.16755699
000300 8a 13 0c 3f fa 66 c3 be 5b 15 b8 be 4f 73 a2 3e
       0.54717314 -0.38164502 -0.35953793 0.31728598
000310 5e 17 4d bd e3 09 63 3d 9c 9b e1 3e ab 97 05 3f
       -0.050071113 0.05542935 0.44064033 0.5218455
000320 70 98 93 bd 0a 58 86 3d 01 9f fb be 1d 91 bc 3d
       -0.072068095 0.06559761 -0.49144748 0.09207366
000330 31 50 d6 3e ff 97 e7 be d9 c6 24 3f b0 c1 87 3e
       0.41858056 -0.4523315 0.6436592 0.2651496
000340 cf ea aa be a3 0e 72 bc 1c 46 60 3e 95 42 c6 be
       -0.3338227 -0.0147739975 0.21901745 -0.38722673
000350 fa 5f 63 be e6 f6 b5 3e 18 56 72 3e a4 84 89 bd
       -0.22204581 0.3553993 0.23665655 -0.06714752
000360 a8 43 b2 be 08 e5 13 be 6a 57 c4 be 56 26 06 bf
       -0.34817243 -0.14442837 -0.38347942 -0.52402246
000370 ed 57 58 3e f5 f4 fe 3e a4 47 49 be cf 93 a6 be
       0.21127291 0.49796262 -0.19656235 -0.32534644
000380 4f 40 90 be 28 e2 14 bf 9b aa c6 3d c1 ba fd be
       -0.28174064 -0.5815759 0.09700509 -0.49556544
000390 fe e1 ec 3e 7a 85 a4 be d0 46 d7 3c fb 2d f1 bc
       0.46266168 -0.32133085 0.026278883 -0.02944087
0003a0 0e 93 b9 be 94 bc f2 3d 98 2c c6 be 52 b5 00 bf
       -0.36245006 0.11852375 -0.38705897 -0.5027667
0003b0 b9 2b e3 be 29 f4 a0 3e 28 2d 76 be 70 cf 07 3f
       -0.44369295 0.3143628 -0.24040663 0.530509
0003c0 e5 34 4c be 09 7d f6 3e a5 a7 03 bf 29 18 1b be
       -0.19942053 0.4814227 -0.5142768 -0.15145935
0003d0 4e 93 8b 3e 82 15 99 3e b3 2f bc 3e 40 66 89 3e
       0.27260822 0.29899222 0.36755142 0.26835823
0003e0 09 74 e4 3e d7 42 8a 3d 46 e0 b3 3e 82 16 ae be
       0.44619778 0.0675103 0.35132045 -0.34001547
0003f0 ed 8a a7 be fc 48 01 3f cd c1 e2 be f3 12 d3 3e
       -0.3272318 0.5050199 -0.44288483 0.41225395
